machine_learning/datasets/oulad/models/risk_seq/risk_lstm.pt (torch, 72540 bytes, 5 tensors)

lstm.weight_ih_l0 f4 [256, 2]
0.13851035 0.046760224 0.06087348 0.06959786 -0.19014455 -0.12438388 -0.162553 0.04411063
0.08448288 -0.08923357 0.09838057 0.019956917 0.092852205 0.047942393 0.09829586 -0.04432499
0.18495123 -0.07037907 -0.17815587 0.12379139 -0.20687446 0.025822658 0.00024661407 0.07488779
-0.15080139 -0.114115946 0.01580978 -0.119403265 -0.065071315 -0.16315746 0.22984579 -0.124493554
0.05479419 0.026492212 0.00882759 -0.03905481 -0.09048938 0.09049907 0.10890036 -0.046841465
0.06892422 -0.061670505 -0.07488657 0.082381934 -0.0792631 -0.06589439 -0.04644373 0.052143298
0.101811185 -0.16794689 -0.2735225 -0.033500616 -0.23908779 0.07827255 -0.031214932 0.087295175
0.07842368 -0.0285565 0.18693489 -0.10662735 -0.045352526 -0.1664222 0.020985046 -0.07278787
0.05238738 -0.13353038 0.009507391 -0.076191545 -0.111664414 -0.06738866 0.24367976 0.018695503
0.031192258 0.0087012155 -0.083332576 -0.09303987 -0.30922106 0.052849937 0.10772733 0.038486574
-0.23845613 -0.08108066 0.16599432 -0.12010645 -0.040775444 -0.043860253 0.17569128 -0.16420516
-0.10145378 -0.033129238 0.12167575 -0.09185393 0.14245287 0.06909763 -0.23132056 -0.044329315
0.080285236 -0.06561768 -0.04864642 -0.20238185 -0.15208597 0.033817973 0.0275987 -0.10759027
-0.17091669 -0.13576491 -0.24020709 -0.051359426 -0.077612 -0.12855867 0.25665674 0.015438466
-0.09446892 -0.117493056 -0.08496241 -0.020649355 -0.2301425 -0.13071506 -0.14667249 -0.0238206
-0.11269822 -0.12114188 -0.11623677 -0.11495942 -0.23408072 -0.058081392 -0.02165779 -0.0354894
0.22278307 -0.036209926 0.2792086 -0.01617825 -0.10426923 -0.035933457 -0.18521075 -0.09325856
-0.11537596 -0.09792194 0.008087688 -0.020164654 0.022994049 0.045860387 0.27496955 -0.05331748
0.0952084 -0.04150552 0.019197917 0.19345091 1.4560581e-05 -0.102876104 0.102824725 -0.04798389
-0.0018515788 -0.12266958 0.21546684 -0.11155705 0.22960259 0.023377502 0.15540555 -0.070877254
0.08881387 0.06270717 0.148591 -0.18956886 -0.045237344 -0.034250703 0.062200364 0.0963619
0.1288792 -0.08318725 -0.196419 -0.03715299 -0.09534125 -0.06898026 -0.22053897 -0.046182558
-0.061462376 -0.051735837 -0.09115358 -0.1435869 0.0028873384 0.042461753 -0.031337917 0.10726126
0.2714893 0.019153368 0.18671732 -0.027971352 0.02162364 -0.09726197 0.07480459 -0.07866736
0.22496608 0.023737425 -0.112320304 -0.032704327 -0.012681379 0.04789703 0.20585565 0.0070875795
-0.24106345 -0.030442033 0.2698403 0.080402024 -0.11034024 -0.124872796 0.009734124 -0.16080023
-0.19955452 0.005147872 0.259858 -0.0059329816 -0.19164667 -0.08871005 0.11948642 0.06222368
-0.009808815 -0.08882823 0.15764618 -0.10681493 -0.0075755455 0.13938451 -0.2185157 -0.03160915
-0.12918502 0.075743765 0.24465328 0.0005980666 -0.27404827 -0.19182879 0.020484164 0.111451976
-0.03809562 0.012309885 -0.130534 -0.01283171 0.09860356 -0.10055472 0.03581273 -0.11565022
-0.09339088 -0.101925395 -0.050987564 -0.070965014 -0.15228067 -0.100064896 -0.15961075 0.07443222
-0.029647673 -0.008224636 -0.1547927 -0.13965097 -0.19107841 -0.10752328 -0.11571365 0.084994756
00000000: a8d5 0d3e a687 3f3d 7856 793d 5389 8e3d
00000010: 41b5 42be fabc febd 4b74 26be 59ad 343d
00000020: 5c05 ad3d 17c0 b6bd c17b c93d b07c a33c
00000030: 4c29 be3d 3e5f 443d 574f c93d 1f8e 35bd
00000040: db63 3d3e e722 90bd 7e6e 36be 5786 fd3d
00000050: e6d6 53be 0a8a d33c fb4b 8139 c55e 993d
00000060: ae6b 1abe 9fb5 e9bd 8383 813c b389 f4bd
00000070: 1c44 85bd c012 27be b25c 6b3e 7af6 febd
00000080: df6f 603d 3206 d93c 99a1 103c f0f7 1fbd
00000090: 7f52 b9bd 9457 b93d 2707 df3d d6dc 3fbd
000000a0: 2428 8d3d 369a 7cbd 215e 99bd dcb7 a83d
000000b0: b154 a2bd a3f3 86bd c83b 3ebd 3694 553d
000000c0: 6282 d03d 45fa 2bbe 240b 8cbe f137 09bd
000000d0: 6ed3 74be 5c4d a03d 75b6 ffbc d0c7 b23d
000000e0: 989c a03d 52ef e9bc dc6b 3f3e 715f dabd
000000f0: 92c3 39bd 956a 2abe d5e8 ab3c cf11 95bd
00000100: 2694 563d 30bc 08be e3c4 1b3c 500a 9cbd
00000110: 50b0 e4bd 1103 8abd 3087 793e 5027 993c
00000120: e886 ff3c 8b8f 0e3c 45aa aabd b08b bebd
00000130: 3952 9ebe 2d79 583d 25a0 dc3d 19a4 1d3d
00000140: d82d 74be 9e0d a6bd 6afa 293e 5ffa f5bd
00000150: 2704 27bd cfa6 33bd 6ae8 333e 6625 28be
00000160: 00c7 cfbd 86b2 07bd 2331 f93d ea1d bcbd
00000170: 2adf 113e 0f83 8d3d 4cdf 6cbe a892 35bd
00000180: 966c a43d 9062 86bd 7841 47bd 303d 4fbe
00000190: 6dbc 1bbe b784 0a3d ab16 e23c 4a58 dcbd
000001a0: c904 2fbe f505 0bbe d9f8 75be 435e 52bd
000001b0: 0af3 9ebd e2a4 03be 8368 833e 9ff1 7c3c
000001c0: ec78 c1bd 33a0 f0bd c600 aebd d628 a9bc
000001d0: 7aaa 6bbe 2bda 05be 5031 16be 6b23 c3bc
000001e0: 53ce e6bd 3c19 f8bd 8b0d eebd d86f ebbd
000001f0: dbb2 6fbe c1e6 6dbd ad6b b1bc 555d 11bd
00000200: 3f21 643e dc50 14bd 6ef4 8e3e 4088 84bc
00000210: 1b8b d5bd f62e 13bd e3a7 3dbe 58fe bebd
00000220: 3b4a ecbd 4c8b c8bd 3982 043c 5830 a5bc
00000230: 045e bc3c 1ad8 3b3d cfc8 8c3e 6e63 5abd
00000240: 9ffc c23d b101 2abd f344 9d3c ff17 463e
00000250: 3849 7437 b5b0 d2bd c595 d23d c18a 44bd
00000260: adb0 f2ba 303a fbbd 57a3 5c3e 0678 e4bd
00000270: f11c 6b3e 2d82 bf3c a222 1f3e 1828 91bd
00000280: 0ce4 b53d 9e6c 803d 3d28 183e 571e 42be
00000290: cb4a 39bd 774a 0cbd cfc5 7e3d 6359 c53d
000002a0: e9f8 033e 145e aabd 1022 49be bc2d 18bd
000002b0: 4642 c3bd 8645 8dbd f8d4 61be ec29 3dbd
000002c0: f9bf 7bbd f5e8 53bd baae babd 7208 13be
000002d0: 8039 3d3b 60ec 2d3d 305c 00bd cbab db3d
000002e0: a500 8b3e 86e7 9c3c d332 3f3e 2d24 e5bc
000002f0: 0f24 b13c 4931 c7bd 2633 993d 5a1c a1bd
00000300: 825d 663e fd74 c23c 3008 e6bd f9f4 05bd
00000310: 8fc5 4fbc ad2f 443d d3cb 523e ed3e e83b
00000320: 56d9 76be 9261 f9bc 8228 8a3e d1a9 a43d
00000330: 10fa e1bd 4fbd ffbd e07b 1f3c d1a8 24be
00000340: 0558 4cbe 7baf a83b 1c0c 853e 7569 c2bb
00000350: 063f 44be 9dad b5bd 4cb5 f43d 42de 7e3d
00000360: 27b5 20bc 93eb b5bd 006e 213e c9c1 dabd
00000370: 483c f8bb d0ba 0e3e 94c2 5fbe 9978 01bd
00000380: 1449 04be 8c1f 9b3d 6486 7a3e 92c7 1c3a
00000390: 0e50 8cbe c46e 44be 68ce a73c ef40 e43d
000003a0: 270a 1cbd 66af 493c b4aa 05be 183c 52bc
000003b0: aaf0 c93d a2ef cdbd 5fb0 123d 06da ecbd
000003c0: b843 bfbd 43be d0bd 56d8 50bd 1b56 91bd
000003d0: 77ef 1bbe d3ee ccbd 0071 23be eb6f 983d
000003e0: addf f2bc a0c0 06bc fa81 1ebe aa00 0fbe
000003f0: 0faa 43be 2a35 dcbd 47fb ecbd bb11 ae3d

lstm.weight_hh_l0 f4 [256, 64]
0.023523219 -0.03878298 -0.052953206 -0.23554243 0.2059216 -0.027688056 0.09472753 0.05687598
0.06734993 0.20516579 0.010789688 0.12232966 0.12369695 -0.19298276 0.023930725 0.10354836
0.14689273 0.0024469462 0.083511144 -0.12479871 -0.13970281 0.023945697 0.13921824 0.019303484
-0.06697946 0.12744355 -0.045605473 0.13692293 -0.13108356 0.06750381 -0.024382092 0.018816173
0.08283695 -0.029834418 -0.025752319 0.03543617 0.0735654 -0.08834737 -0.046762455 0.057618495
-0.11875063 0.021383153 0.036367934 -0.15983059 0.03288728 -0.006188978 0.070736654 0.06708445
0.22476572 0.05886161 -0.11481781 -0.08151322 -0.07357645 0.008320294 -0.025097106 -0.1265749
-0.04592658 -0.10062607 -0.057850625 -0.15620296 -0.06474521 0.19491768 0.23375414 -0.09266244
-0.10273223 0.12634128 -0.08702489 -0.1463491 0.118926294 -0.06649745 0.05022347 0.2058943
0.0787498 0.06537114 -0.07336004 -0.01737112 0.025043549 -0.032088578 -0.010707088 0.16259655
-0.02114797 -0.064163804 -0.03770611 -0.13693161 -0.066325545 -0.16848911 0.1429913 0.068229176
-0.030761156 0.14071383 -0.1158386 0.0046827807 -0.10962658 -0.04958071 -0.029351916 0.018861698
0.033694837 0.10136296 0.023063766 -0.1412469 -0.06393206 0.037561752 0.03961483 -0.060224447
-0.038310647 -0.17444557 0.0028413997 0.060378842 -0.0134971235 -0.049327273 -0.047015738 -0.094170034
0.0722447 -0.14729789 -0.105036765 0.09637232 -0.12403317 0.109439455 -0.04959662 -0.10401312
0.10577544 0.1314529 -0.030944478 -0.012683381 -0.13773638 0.03305393 -0.01205345 -0.13499269
0.046375096 -0.09319772 0.14348562 -0.119352445 -0.036004163 0.09000263 -0.02458663 0.007853726
0.04949684 -0.14359339 0.19087152 -0.0056468467 0.22304705 -0.13978574 0.0611347 0.20850681
0.16878793 -0.089724645 0.11240813 0.021241987 -0.14985734 -0.15335801 0.040233895 0.24485654
0.15810066 0.18017392 0.12620267 0.11992983 0.074434094 -0.075324155 -0.06758367 0.017386377
0.1602999 -0.074856706 -0.242245 0.05388718 0.08139554 -0.055697195 -0.017764319 -0.032105055
-0.06002766 -0.029405931 0.10029346 -0.046042 0.12316617 0.07053589 -0.14393164 -0.16182081
0.04645352 -0.10589919 -0.1409152 0.11746745 0.08911292 0.2516942 0.06777778 0.0042854464
0.25640717 0.0050610336 0.0030310699 0.313812 -0.062355503 0.15779027 0.14909548 -0.104443595
-0.019065125 -0.08949996 -0.03822274 -0.015277643 -0.20512018 0.05083865 0.06096577 0.10775631
0.014198391 -0.20998618 0.17325719 0.106110565 0.09217893 -0.14336747 -0.047673184 0.0049459753
-0.013654102 0.023386886 0.10250564 0.05497771 0.032039154 0.03711261 0.13032842 -0.024055455
-0.07193756 -0.019264514 0.11615536 -0.15145399 -0.13553837 0.06294786 0.06352404 0.12692289
-0.11132122 -0.14299971 0.09879325 0.11069946 0.13942127 -0.07390942 0.090365514 0.09214372
-0.14589249 -0.10479619 0.13422139 -0.0935091 0.002849775 0.0013807395 0.13275322 -0.014740437
-0.063509434 -0.030000085 0.04680958 -0.028920062 0.038989916 0.11714725 -0.11737725 0.0935811
0.01096241 -0.08297323 0.010033768 0.030624036 -0.11326533 0.13951184 0.09662465 -0.18716948
00000000: c4b3 c03c e7da 1ebd 76e5 58bd 0932 71be
00000010: 1ddd 523e 10d2 e2bc 8200 c23d caf6 683d
00000020: c3ee 893d fb16 523e 3bc7 303c f987 fa3d
00000030: d454 fd3d 469d 45be 5e0a c43c 2a11 d43d
00000040: 0c6b 163e f25c 203b e407 ab3d 7796 ffbd
00000050: 410e 0fbe c429 c43c 3a8f 0e3e 5722 9e3c
00000060: 872c 89bd 9080 023e cecc 3abd 8635 0c3e
00000070: c53a 06be 703f 8a3d f4bc c7bc 6024 9a3c
00000080: 6ba6 a93d 4f67 f4bc 87f6 d2bc 8425 113d
00000090: 75a9 963d 77ef b4bd fd89 3fbd 5f01 6c3d
000000a0: 8833 f3bd b92b af3c 8bf6 143d a1aa 23be
000000b0: d0b4 063d e9cc cabb 61de 903d 9263 893d
000000c0: fc28 663e df18 713d 9a25 ebbd 67f0 a6bd
000000d0: 40af 96bd d851 083c 7298 cdbc da9c 01be
000000e0: 821d 3cbd 0a15 cebd c7f4 6cbd abf3 1fbe
000000f0: 2399 84bd 8098 473e 3f5d 6f3e cec5 bdbd
00000100: 4765 d2bd 9c5f 013e 1b3a b2bd 8adc 15be
00000110: a18f f33d d12f 88bd 20b7 4d3d f5d5 523e
00000120: 9347 a13d 4ee1 853d ca3d 96bd e14d 8ebc
00000130: 2128 cd3c 506f 03bd c86c 2fbc b67f 263e
00000140: 823e adbc 5068 83bd b971 1abd cd37 0cbe
00000150: b0d5 87bd 6988 2cbe 506c 123e bdbb 8b3d
00000160: d2fe fbbc 4917 103e ca3c edbd 0372 993b
00000170: e683 e0bd 2415 4bbd 6e73 f0bc d983 9a3c
00000180: 9903 0a3d 6297 cf3d 39f0 bc3c 07a3 10be
00000190: d0ee 82bd 5ada 193d 2943 223d e9ad 76bd
000001a0: a0eb 1cbd dca1 32be c736 3a3b ce4f 773d
000001b0: 0a23 5dbc 650b 4abd 9393 40bd 38dc c0bd
000001c0: 07f5 933d 42d5 16be 841d d7bd da5e c53d
000001d0: 1a05 febd cb21 e03d d325 4bbd d504 d5bd
000001e0: cba0 d83d 979b 063e 467f fdbc f5cd 4fbc
000001f0: c40a 0dbe 8f63 073d d57b 45bc 863b 0abe
00000200: d0f3 3d3d 72de bebd e5ed 123e 0e6f f4bd
00000210: 1a79 13bd 4d53 b83d e669 c9bc eaac 003c
00000220: 33bd 4a3d 250a 13be d373 433e 2f09 b9bb
00000230: 7266 643e fe23 0fbe 6168 7a3d cf82 553e
00000240: bed6 2c3e 8ec1 b7bd 3c36 e63d ad03 ae3c
00000250: 3474 19be e209 1dbe 4ccc 243d acbb 7a3e
00000260: 24e5 213e 837f 383e 463b 013e c59d f53d
00000270: e770 983d 8d43 9abd 4f69 8abd e06d 8e3c
00000280: a825 243e 794e 99bd 130f 78be ceb8 5c3d
00000290: b4b2 a63d be22 64bd 7a86 91bc 9780 03bd
000002a0: 90df 75bd b5e4 f0bc a866 cd3d 8996 3cbd
000002b0: 8c3e fc3d 1f75 903d d162 13be 5bb4 25be
000002c0: 0c46 3e3d ade1 d8bd 134c 10be c692 f03d
000002d0: d680 b63d 10de 803e 14cf 8a3d ee6c 8c3b
000002e0: cd47 833e 07d7 a53b eaa4 463b f7ab a03e
000002f0: 7c68 7fbd c693 213e 7cac 183e 86e6 d5bd
00000300: 772e 9cbc c14b b7bd 738f 1cbd 144f 7abc
00000310: 060b 52be 303c 503d 3eb7 793d 57af dc3d
00000320: 5ea0 683c 9e06 57be 556a 313e 7f50 d93d
00000330: 4fc8 bc3d ecce 12be f544 43bd d911 a23b
00000340: 74b5 5fbc db95 bf3c 7aee d13d 4f30 613d
00000350: 7d3b 033d 6403 183d d074 053e f20f c5bc
00000360: 0054 93bd 9dd0 9dbc dde2 ed3d c116 1bbe
00000370: 92ca 0abe cfea 803d e418 823d 13f8 013e
00000380: 61fc e3bd 846e 12be 1e54 ca3d 66b6 e23d
00000390: 73c4 0e3e d25d 97bd 8e11 b93d d9b5 bc3d
000003a0: d764 15be 639f d6bd 5571 093e b381 bfbd
000003b0: 4ac3 3a3b eef9 b43a 76f0 073e e081 71bc
000003c0: 3c11 82bd bdc2 f5bc 67bb 3f3d c4e9 ecbc
000003d0: e4b3 1f3d e6ea ef3d 7c63 f0bd 73a7 bf3d
000003e0: ae9b 333c deed a9bd ac64 243c 42df fa3c
000003f0: a7f7 e7bd 31dc 0e3e 25e3 c53d 5ba9 3fbe

lstm.bias_ih_l0 f4 [256]
-0.0010323093 0.18184815 0.06628423 -0.024133543 -0.0040317546 0.03470431 -0.028763905 0.24859457
0.11029917 -0.016559461 -0.012911583 -0.07131399 0.15475032 0.010207604 0.13083354 -0.06431755
0.053362887 0.15347952 0.14424084 0.118541464 0.16413073 -0.063908294 0.060206894 -0.029107338
-0.04059028 0.028073458 0.16353281 -0.06217661 0.03817012 0.021663181 0.20208459 0.118778534
0.20699427 -0.04435287 0.05284593 0.14446145 0.15946032 -0.07556707 0.037767597 0.06960024
0.029683169 0.1764046 0.14480457 0.024828408 0.13211551 0.056728587 -0.049517825 -0.0019973295
0.028719464 0.06732159 0.10519094 0.015215619 0.15839781 0.10008799 0.027493997 -0.010996269
0.11137295 0.12130539 0.12394909 -0.0018907534 0.1412894 0.12894088 0.060666163 -0.07019757
0.10724239 0.0029355348 0.014105668 -0.005775431 0.0138060665 0.009761899 0.041071706 -0.07733178
-0.00759057 -0.021289617 -0.06585008 -0.11047891 -0.013062435 0.0452415 0.076873116 0.051882133
-0.014582825 -0.042941112 0.0031330881 -0.07782029 -0.00048353482 0.03952085 0.061207067 -0.08056732
0.14155786 0.12150731 -0.020566206 -0.0572489 0.04885464 0.061864946 0.0035220336 -0.04413435
0.044909768 -0.053566072 -0.05895205 0.06871778 0.066255815 0.07628579 0.12645756 0.016738547
0.053868216 0.13845399 -0.06934733 0.10022162 0.13512447 -0.05571289 0.11521525 -0.029499011
-0.05878917 0.13509259 0.120187484 0.007129587 -0.0880025 0.08387019 0.044560615 -0.056085497
0.010672674 0.12347015 0.0819671 -0.007446181 0.042685017 0.03889434 0.09617555 0.07695657
-0.063371584 0.006046308 -0.1234645 0.013752999 0.05614369 -0.115481615 0.010249206 0.16671649
0.08946803 0.09422095 -0.08054257 -0.0440671 -0.14915879 -0.10653855 -0.049244624 0.091244906
0.077848814 -0.09726129 -0.03380779 -0.09843974 -0.11776359 -0.0235881 -0.15041274 -0.014021791
0.0358445 0.037112862 0.005776927 0.016632207 0.015149327 0.0712064 -0.035840087 -0.0028464072
-0.14554855 0.00068307377 0.02629775 0.077376105 0.059438907 -0.05599931 -0.029852081 0.046268325
0.095752336 -0.13102323 -0.02863142 0.010429907 -0.06411937 0.08436222 0.13200669 -0.0113558825
0.09427139 -0.13909502 -0.046810973 0.081815295 -0.1149338 0.028341088 0.11113554 -0.07270747
0.056941323 -0.06084884 -0.065744095 0.007704853 0.16618297 0.104358934 0.007240904 -0.02649956
0.18797018 0.147708 0.117958985 0.1282007 0.03731443 0.03109026 0.024381116 0.13775721
-0.006081598 0.122343495 0.10087081 -0.034430087 -0.036058117 0.060422592 0.09321209 0.017104147
0.14868613 0.16097014 0.13280961 0.08582975 0.13326345 -0.06020973 0.18451196 -0.041739177
-0.079718724 -0.00297331 0.20976731 0.08780095 0.13261913 0.13037875 -0.009254036 -0.02682476
0.124343425 0.032744743 0.06791915 -0.048868787 0.18613307 -0.085933216 0.18582588 0.10895567
-0.025562331 0.18714799 0.110349245 -0.032458406 0.08884111 0.084915176 0.002206326 0.06933538
0.07217386 0.1434909 0.0051840832 0.12219267 0.16567682 0.122813575 -0.02087198 0.0850587
0.02766886 0.1398392 0.20693105 0.17587349 0.11681685 0.13634054 0.11075696 0.018158693
00000000: 8d4e 87ba 6736 3a3e 07c0 873d b5b3 c5bc
00000010: cf1c 84bb 1b26 0e3d 48a2 ebbc 938f 7e3e
00000020: 88e4 e13d b5a7 87bc 1b8b 53bc 120d 92bd
00000030: de76 1e3e cb3d 273c 3af9 053e ebb8 83bd
00000040: 0b93 5a3d bc29 1d3e dfb3 133e dec5 f23d
00000050: e311 283e 5ae2 82bd 819b 763d 8372 eebc
00000060: fe41 26bd 4ffa e53c 2575 273e e7ac 7ebd
00000070: 4658 1c3d fc76 b13c 43ef 4e3e 2942 f33d
00000080: 4ef6 533e 5bab 35bd f974 583d b4ed 133e
00000090: 9149 233e e8c2 9abd 32b2 1a3d 928a 8e3d
000000a0: 1e2a f33c 68a3 343e a647 143e f264 cb3c
000000b0: 4a49 073e 3c5c 683d 34d3 4abd a1e5 02bb
000000c0: 1545 eb3c e7df 893d 596e d73d ee4a 793c
000000d0: 0933 223e effa cc3d 173b e13c b229 34bc
000000e0: 8017 e43d f66e f83d 05d9 fd3d 28d3 f7ba
000000f0: 2bae 103e 1409 043e 157d 783d bec3 8fbd
00000100: e6a1 db3d 1a62 403b 761b 673c d43f bdbb
00000110: d732 623c 5ff0 1f3c ce3a 283d 2060 9ebd
00000120: 51ba f8bb 9067 aebc 68dc 86bd c442 e2bd
00000130: d303 56bc 274f 393d a76f 9d3d 5c82 543d
00000140: cdec 6ebc 05e3 2fbd 7f54 4d3b 3f60 9fbd
00000150: f282 fdb9 9de0 213d 43b4 7a3d 7b00 a5bd
00000160: 8bf4 103e d3d8 f83d 767a a8bc d37d 6abd
00000170: ce1b 483d 1966 7d3d ebd1 663b 38c6 34bd
00000180: 4ef3 373d 1968 5bbd b477 71bd e8bb 8c3d
00000190: 21b1 873d b93b 9c3d 177e 013e 471f 893c
000001a0: eba4 5c3d e2c6 0d3e f905 8ebd fe40 cd3d
000001b0: 125e 0a3e 3333 64bd f9f5 eb3d e9a7 f1bc
000001c0: eacc 70bd b655 0a3e db24 f63d 4f9f e93b
000001d0: a83a b4bd 22c4 ab3d 3185 363d e8b9 65bd
000001e0: 70dc 2e3c ebdd fc3d 5ede a73d 18ff f3bb
000001f0: 7cd6 2e3d ac4f 1f3d b0f7 c43d 689b 9d3d
00000200: f6c8 81bd 1c20 c63b f5da fcbd 4254 613c
00000210: edf6 653d a081 ecbd 49ec 273c bab7 2a3e
00000220: 043b b73d eaf6 c03d 81f3 a4bd b47f 34bd
00000230: 15bd 18be e230 dabd bbb4 49bd 9cde ba3d
00000240: 336f 9f3d ed30 c7bd 0a7a 0abd c69a c9bd
00000250: 092e f1bd d53b c1bc cc05 1abe a7bb 65bc
00000260: afd1 123d a803 183d 604c bd3b 4440 883c
00000270: e234 783c a9d4 913d 0ecd 12bd ca8a 3abb
00000280: ae0a 15be 4e10 333a 616e d73c 5d77 9e3d
00000290: 3676 733d 885f 65bd 5a8c f4bc db83 3d3d
000002a0: cd19 c43d f42a 06be 718c eabc 33e2 2a3c
000002b0: 0451 83bd 19c6 ac3d c32c 073e 060e 3abc
000002c0: 5c11 c13d ed6e 0ebe ddbc 3fbd c78e a73d
000002d0: 6a62 ebbd 922b e83c 089b e33d a7e7 94bd
000002e0: 4e3b 693d a23c 79bd d7a4 86bd fe78 fc3b
000002f0: de2b 2a3e 23ba d53d 1b45 ed3b 9b15 d9bc
00000300: 417b 403e c440 173e 7b94 f13d 0b47 033e
00000310: 04d7 183d 00b1 fe3c e8ba c73c 3a10 0d3e
00000320: 2448 c7bb 3a8f fa3d 5b95 ce3d 9006 0dbd
00000330: adb1 13bd ae7d 773d fbe5 be3d ff1d 8c3c
00000340: 2d41 183e 5bd5 243e 3eff 073e 82c7 af3d
00000350: 3776 083e 7a9e 76bd b4f0 3c3e b3f6 2abd
00000360: 9243 a3bd dddb 42bb 3ecd 563e fcd0 b33d
00000370: 4fcd 073e 0282 053e 3d9e 17bc 99bf dbbc
00000380: c4a7 fe3d 5a1f 063d 3219 8b3d a32a 48bd
00000390: ab99 3e3e c1fd afbd 2449 3e3e 2624 df3d
000003a0: 1868 d1bc b9a3 3f3e c9fe e13d 1bf3 04bd
000003b0: 54f2 b53d 02e8 ad3d 0298 103b b5ff 8d3d
000003c0: e4cf 933d 47ef 123e 3edf a93b 2740 fa3d
000003d0: 2fa7 293e af85 fb3d b7fb aabc 4133 ae3d
000003e0: cea9 e23c 0232 0f3e bce5 533e 2e18 343e
000003f0: ac3d ef3d db9c 0b3e 8cd4 e23d 8ac1 943c

lstm.bias_hh_l0 f4 [256]
0.097625755 -0.01031637 0.09410488 0.1010881 -0.06072869 -0.026030518 0.049290475 0.0920619
-0.079914585 0.12243815 0.15701103 -0.062296208 0.06670508 -0.0710276 0.2454452 0.08653007
0.07908722 0.23978442 0.048257846 -0.032074764 0.08681139 0.05694362 0.010952989 -0.031912852
-0.033546705 0.07632706 0.14625917 -0.061418016 0.21436673 -0.038125 0.13590351 0.14582989
0.023287255 0.18192887 -0.05402376 0.12381255 0.085755706 -0.036971163 0.23804826 0.053840276
0.051340513 0.21951178 -0.074858956 0.13363996 0.107158236 -0.11287644 0.101046175 0.016781945
-0.08642697 0.02707317 0.11043409 0.09477635 0.13898176 0.12877591 0.0630114 -0.06439662
0.05755156 0.14065252 0.1313186 0.06385795 0.30502245 0.0067316717 0.104028545 0.08001219
0.1399655 0.050871447 0.05574038 0.085176185 -0.10442607 -0.013575467 -0.060494006 0.0231514
-0.06264255 0.03619649 -0.034811534 -0.077439144 0.047432866 0.14390099 0.013123294 -0.06014795
-0.0029223002 -0.007357129 -0.09155605 0.1257908 0.100009345 0.105974585 -0.020831635 -0.049679168
0.14267118 -0.061791617 -0.0695983 -0.054901462 0.06864965 0.016981285 -0.03932276 0.11972959
-0.033818193 0.030650599 0.06884416 0.088545576 0.1567493 0.010362472 0.08517992 0.008035662
0.027840482 -0.024195017 0.08626854 0.045399133 0.07450431 -0.017554158 0.068101056 -0.0929264
0.103010364 0.14353132 0.12917392 0.011577153 -0.105899855 -0.021293279 -0.08655433 -0.041352138
0.11362817 0.018740414 0.15371777 -0.012983052 -0.014195109 -0.017107977 0.061277755 0.06455806
0.018260095 0.12881033 0.04273684 -0.07321933 -0.0015493208 0.11344446 0.08153006 0.09616098
-0.02302933 -0.07334016 0.073773645 -0.07446233 0.00030704244 -0.07983141 -0.12286257 0.093084365
0.11978581 -0.056529064 -0.015557128 0.020914951 -0.045559958 0.049219325 -0.023867963 0.07387251
-0.031025859 0.0530364 -0.06757068 0.04156836 -0.13442957 0.116918854 0.18771267 0.084031075
-0.039659847 0.105781406 -0.0974756 -0.14824885 0.0659951 -0.117353395 -0.086899035 -0.11631727
-0.04697654 -0.081845365 -0.044966467 -0.14078479 -0.18040647 -0.13062818 0.02317444 0.025198782
0.091096774 -0.14688371 -0.08503133 -0.0069696773 0.0062679537 0.03424618 0.0206003 -0.080150105
-0.045313574 0.034111388 -0.07728969 -0.08621325 0.062388796 0.0061066495 0.020981967 -0.049647994
0.062031634 0.12441578 0.20270301 0.10617616 -0.012916237 0.070463955 -0.057024006 0.2435712
0.100152925 -0.00860283 0.16242056 0.17415877 0.0889648 -0.07980107 0.22229384 0.020739255
0.004759852 0.12330719 0.16041362 0.07599205 -0.04993549 0.07578616 -0.00894044 -0.06632212
-0.060715266 0.11398644 0.18369713 0.05473158 0.17441645 -0.061362058 0.049261387 0.021076608
-0.020801237 -0.011132107 -0.08115202 -0.06460978 0.08602166 -0.035150353 0.12728047 0.023087386
0.05006069 -0.03684977 -0.05730878 -0.08840788 0.232383 -0.0066056936 -0.07339696 0.013006931
0.013589491 0.0024416756 0.16890705 0.11779792 0.15781288 0.061042715 0.10991462 0.061437972
0.05382943 0.06661188 0.03403745 0.120844096 0.17942844 0.13221858 0.07387318 0.09681441
00000000: 03f0 c73d fe05 29bc 0fba c03d 4707 cf3d
00000010: a6be 78bd f43d d5bc cfe4 493d f38a bc3d
00000020: 42aa a3bd dac0 fa3d 80c7 203e 4f2a 7fbd
00000030: ac9c 883d eb76 91bd fd55 7b3e ad36 b13d
00000040: 7bf8 a13d 0c8a 753e 05aa 453d d460 03bd
00000050: 2cca b13d b73d 693d 2a74 333c 0db7 02bd
00000060: 4568 09bd 5d51 9c3d f7c4 153e 7591 7bbd
00000070: f482 5b3e f628 1cbd 4a2a 0b3e 6e54 153e
00000080: eac4 be3c 904b 3a3e 0548 5dbd 6f91 fd3d
00000090: b0a0 af3d 136f 17bd ecc2 733e 9f87 5c3d
000000a0: 6e4a 523d b2c7 603e a74f 99bd ead8 083e
000000b0: c775 db3d c32b e7bd 4cf1 ce3d 4a7a 893c
000000c0: a000 b1bd 8dc8 dd3c 452b e23d 1a1a c23d
000000d0: 3c51 0e3e d5dd 033e 1f0c 813d 60e2 83bd
000000e0: 2fbb 6b3d 3707 103e 6278 063e f5c7 823d
000000f0: e72b 9c3e 5b95 dc3b eb0c d53d 6edd a33d
00000100: 1e53 0f3e 945e 503d 0650 643d da70 ae3d
00000110: 56dd d5bd a36b 5ebc 90c8 77bd 01a8 bd3c
00000120: bd4a 80bd c542 143d 8a96 0ebd 6a98 9ebd
00000130: f748 423d c85a 133e 1603 573c b25d 76bd
00000140: 1084 3fbb 1214 f1bb bd81 bbbd 4ecf 003e
00000150: b3d1 cc3d 3409 d93d 1ba7 aabc 627c 4bbd
00000160: 6518 123e 3519 7dbd 8e89 8ebd 5be0 60bd
00000170: 3098 8c3d 561c 8b3c e710 21bd ca34 f53d
00000180: f284 0abd f716 fb3c 2bfe 8c3d 6257 b53d
00000190: e382 203e 5cc7 293c cf72 ae3d 02a8 033c
000001a0: b911 e43c a134 c6bc 8fad b03d 71f4 393d
000001b0: b795 983d bdcd 8fbc 9178 8b3d 3250 bebd
000001c0: 19f7 d23d e0f9 123e 2b46 043e 19ae 3d3c
000001d0: 06e2 d8bd 3e6f aebc 6643 b1bd dc60 29bd
000001e0: e3b5 e83d 7f85 993c 3168 1d3e deb6 54bc
000001f0: 9a92 68bc 0726 8cbc 62fe 7a3d 0437 843d
00000200: 3296 953c dbe6 033e d30c 2f3d 04f4 95bd
00000210: 9412 cbba 9255 e83d 3bf9 a63d 0cf0 c43d
00000220: 01a8 bcbc 5e33 96bd a316 973d b57f 98bd
00000230: 8afa a039 a67e a3bd 5f9f fbbd 04a3 be3d
00000240: 4352 f53d 058b 67bd 53e3 7ebc d555 ab3c
00000250: 149d 3abd 349a 493d bf86 c3bc 784a 973d
00000260: f129 febc b23c 593d 7f62 8abd 9643 2a3d
00000270: e8a7 09be 2773 ef3d c037 403e 7c18 ac3d
00000280: 5d72 22bd eca3 d83d 4aa1 c7bd 8cce 17be
00000290: 7028 873d fa56 f0bd 1ff8 b1bd c037 eebd
000002a0: 796a 40bd 8b9e a7bd c22e 38bd e329 10be
000002b0: 79bc 38be 65c3 05be 53d8 bd3c ad6d ce3c
000002c0: f290 ba3d af68 16be e824 aebd e461 e4bb
000002d0: 6863 cd3b b945 0c3d f6c1 a83c bd25 a4bd
000002e0: ba9a 39bd 62b8 0b3d 0f4a 9ebd 9390 b0bd
000002f0: 658b 7f3d 4a1a c83b 60e2 ab3c b25b 4bbd
00000300: e214 7e3d b3cd fe3d 6191 4f3e e372 d93d
00000310: a09e 53bc 684f 903d 0192 69bd bb6a 793e
00000320: fa1c cd3d e2f2 0cbc 9351 263e ad56 323e
00000330: 2d33 b63d be6e a3bd ffa0 633e 5fe5 a93c
00000340: 88f8 9b3b 7b88 fc3d 7843 243e b8a1 9b3d
00000350: 2889 4cbd c635 9b3d ec7a 12bc e4d3 87bd
00000360: 92b0 78bd b971 e93d 1a1b 3c3e 392e 603d
00000370: 3a9a 323e c856 7bbd 4fc6 493d daa8 ac3c
00000380: 5b67 aabc 7163 36bc 0833 a6bd 2252 84bd
00000390: 202c b03d d1f9 0fbd d055 023e c221 bd3c
000003a0: 700c 4d3d c9ef 16bd 9cbc 6abd 310f b5bd
000003b0: cff5 6d3e 9374 d8bb 2551 96bd 061b 553c
000003c0: 75a6 5e3c 8504 203b f8f5 2c3e 0940 f13d
000003d0: b399 213e ed07 7a3d eb1a e13d 62a6 7b3d
000003e0: 407c 5c3d cf6b 883d da6a 0b3d 1c7d f73d
000003f0: 17bc 373e 4f64 073e d24a 973d a246 c63d

fc.weight f4 [1, 64]
-0.18192175 0.114272214 -0.39131847 0.1816654 -0.033429418 -0.19816141 0.12666026 0.24203835
-0.021209491 0.23911498 -0.42066687 -0.2754716 -0.21755414 -0.026614396 -0.3198972 0.046768397
-0.15050685 -0.29260585 -0.28510708 -0.06596304 0.017987318 0.17246221 -0.17290278 -0.12767582
-0.003679428 -0.28991672 -0.38727754 -0.025576005 -0.22051962 0.08634564 0.3410935 0.33737224
-0.23193845 0.2836625 0.194845 -0.07098336 -0.22945757 -0.1956361 -0.28936592 -0.24001892
0.19568342 -0.25888938 -0.191032 -0.017831223 -0.17454341 -0.07328617 0.17240693 0.32942474
-0.20491523 -0.2051623 0.13755465 0.07940985 -0.44948044 -0.33374423 -0.028746642 -0.028662313
-0.14451948 0.16202874 -0.3942415 -0.12097393 0.24637887 -0.12603481 -0.096979916 -0.12952253
00000000: b249 3abe 8d07 ea3d e55a c8be 7f06 3a3e
00000010: 49ed 08bd d3ea 4abe 3ab3 013e e7d8 773e
00000020: 87bf adbc 8fda 743e a661 d7be 9d0a 8dbe
00000030: 83c6 5ebe 6f06 dabc 91c9 a3be 3890 3f3d
00000040: 781e 1abe 6fd0 95be 8ef9 91be a117 87bd
00000050: 245a 933c ef99 303e 6d0d 31be 73bd 02be
00000060: 8f22 71bb f76f 94be 3e49 c6be c584 d1bc
00000070: e5cf 61be fcd5 b03d cfa3 ae3e 0ebc ac3e
00000080: 4681 6dbe 363c 913e 7385 473e b95f 91bd
00000090: edf6 6abe d454 48be c527 94be 85c7 75be
000000a0: 3c61 483e 268d 84be e59d 43be c912 92bc
000000b0: 82bb 32be 0f17 96bd 718b 303e 5caa a83e
000000c0: 4cd5 51be 1116 52be 20db 0c3e a2a1 a23d
000000d0: 4d22 e6be 86e0 aabe 147e ebbc 3acd eabc
000000e0: eafc 13be ddea 253e 06da c9be 2ec1 f7bd
000000f0: be4a 7c3e 450f 01be 689d c6bd 8ea1 04be
