machine learning/datasets/oulad/models/risk_seq/risk_rnn.pt (torch, 20306 bytes, 5 tensors)

rnn.weight_ih_l0 f4 [64, 2]
00000000: f804 793e 1bc5 af3d e816 4e3e 50e7 293e
00000010: fef1 9bbc fc8b 443d 6797 37be 534d ad3d
00000020: 0684 873e 9a31 cfbd 47c9 843e 4fa7 803c
00000030: 81f3 293e 3438 c7bc 5a85 26be 5208 a6bd
00000040: bb46 d83d ea0f 76bb 81cd 8ebc 4e76 a0bc
00000050: 3c35 59be 4920 91bc a4e3 08be fef9 083e
00000060: eeab 8abe 73d0 79bd e5f0 5abe c3cb b7bd
00000070: 25c5 cf3c 728d 34be ef5f 11bd 4a79 b6bd
00000080: 434c 2b3e 3ee7 b9bc 068a f5bd 9bb5 903d
00000090: f4d7 acbc 7dba 723e 435c 08be e10b 58bd
000000a0: f45b 4ebe 8295 92bd a8d0 3b3e c720 073e
000000b0: ca3b 8cbc 28e8 eabd 4c30 a13e 9ff2 803d
000000c0: 0d48 8d3e d97c 86bd 45e5 92be 4861 31bd
000000d0: 4967 5bbe 49a6 013e df68 e2bd 7f87 1e3d
000000e0: 0891 e4bc 07e2 07be 71b4 7d3e a8f8 b1bd
000000f0: 08f2 f1bd 796a 79bd ccc6 8dbd 6b3b f4bc
00000100: 77b8 423e 2558 88bc 984d 243e a7d8 02be
00000110: 922b 6ebe aea0 9fbd 36e4 713e f0c9 0b3d
00000120: 2be2 d6bd d18a f5bd 6691 43be 9c68 48bd
00000130: 3f75 b7bd d53c 40bd 21d2 103e aaa3 8e3d
00000140: 2d16 17be 77d3 08bd 3d41 073e e9df d3bd
00000150: e27a 453c 7f65 003b b75b 4b3e bf32 e6bd
00000160: a743 4bbd ad0d 163d 4db6 423e 4037 ff3b
00000170: e407 5c3e 886f 9b3d d641 1dbe 487a 3ebd
00000180: 3c7e c73d fc75 b8bd 5b2f 56be d8f5 13be
00000190: 48f3 5ebe 1a81 123d 9bb5 94bd 9fa8 98bc
000001a0: 9339 7abe 037b 8bbd 542e 6fbe 886c 16bd
000001b0: eda0 6b3d a1db 02bd 9f39 993e 0c53 c43c
000001c0: 99a7 553d 0d89 16be 1cc3 023d 02ae 0bbd
000001d0: f6f6 eabd f6cd e6bd cdcd 74be ad8d 85bd
000001e0: dde7 4f3e a7e4 b9bc 28a6 cc3d fb0f d7bd
000001f0: 77a4 27be bbe3 9dbc f35b 31be 726c 9ebd
0.24318302 0.08582517 0.20125926 0.16592145 -0.01903629 0.047985062 -0.17928849 0.08462014
0.26467913 -0.101168826 0.25934812 0.015704779 0.16596796 -0.024318792 -0.16261807 -0.08107056
0.10560366 -0.0037546107 -0.017431976 -0.019587662 -0.21211714 -0.01771559 -0.13368088 0.13376614
-0.27084297 -0.06098981 -0.21380956 -0.08974411 0.02536256 -0.17632082 -0.03549188 -0.08909853
0.1672831 -0.022693273 -0.119892165 0.070658885 -0.021099068 0.23703952 -0.13316445 -0.052745704
-0.20152265 -0.071574226 0.18341315 0.13196097 -0.017118353 -0.114700615 0.3148216 0.06296276
0.27594033 -0.065667816 -0.28690544 -0.043305665 -0.21426119 0.12661089 -0.11055159 0.038703438
-0.027901188 -0.13269816 0.24775864 -0.086900055 -0.11813742 -0.060892556 -0.06922683 -0.029813489
0.1901568 -0.016643593 0.16045225 -0.12777959 -0.23258808 -0.07794319 0.23622212 0.03412813
-0.10492357 -0.11989368 -0.19098434 -0.04892789 -0.0895791 -0.046933014 0.14142658 0.0696481
-0.14754553 -0.033404794 0.1320848 -0.10345442 0.012053223 0.0019591746 0.19859205 -0.11240148
-0.049625065 0.036634136 0.19014855 0.0077885687 0.21487385 0.07589632 -0.15357146 -0.046503335
0.09740874 -0.09006879 -0.20916502 -0.1444925 -0.21772492 0.035767652 -0.07261201 -0.018635092
-0.24436025 -0.06810572 -0.23357517 -0.036724597 0.057526518 -0.031947736 0.29926774 0.023965381
0.052161787 -0.14700718 0.031924352 -0.034101494 -0.11472885 -0.11269753 -0.23906632 -0.06521163
0.20303293 -0.022692038 0.09992629 -0.10501095 -0.16371332 -0.01927363 -0.17320232 -0.07735528

rnn.weight_hh_l0 f4 [64, 64]
00000000: 7f7f e73d b2bf 56bd 8973 db3d 1fcf 4f3c
00000010: 9f11 b5bd 2da4 c03d 1c4e 103a 7013 a9bc
00000020: 123e 91bd 1cae 10be d0db 373d 1f7e 61bd
00000030: d6fe 0d3d 5ee3 d2bd c665 d33d 19ca b6bd
00000040: 7cbc fcb9 c687 02bd adfc 693d c8a4 c13d
00000050: 8ea5 e53d 1c1c bbbd 7327 813d 4707 44bd
00000060: 8e04 9ebc 9409 ddbd 63a4 3d3d 400c 90bd
00000070: 0a7e 733d 2fb3 9c3d 351b c13d c9b6 72bd
00000080: 6432 063e 0ec4 9f3d 5e1a 293c c911 bebd
00000090: b94b 8c3d fe54 51bd fbba 68bd bf90 eb3d
000000a0: 134a 743d e95a 3fbd ca53 06bd 6d91 103d
000000b0: 1b4c 203d 81eb 2ebc 6948 88bd 4c2e babd
000000c0: aed3 43bd bb91 1d3d 8b86 7d3d 6030 00be
000000d0: b78d 813d e662 b33d 0ed7 c2ba c911 67bc
000000e0: b552 7f3d 0419 363d aa86 543d 9e34 1fbc
000000f0: 288c 58bd e165 2cbb 28ef 6dbd 0f2e 0ebd
00000100: 156b 533e 29fb 063e bb0d 51bc fdf5 88bd
00000110: 5ba2 5f3d af98 a23c e2dd d23d 86e6 333d
00000120: 3e82 80bb 4c12 8ebc 8b87 043d ee27 28bd
00000130: b759 a4bd 3f2b efbd 559f c8bd b785 3fbe
00000140: d212 693d 71e4 d0bd 691d 913d 0d72 0a3d
00000150: 919d 17be 8830 c0bd 1841 e73c 42c9 293e
00000160: 9fc7 c83c a986 9bbd 9385 0bbe 43ee 47bd
00000170: eed4 d3bd a696 223e 944d 7abd 4fb8 86bd
00000180: eb98 8cbd 4a81 633e f85b e53d fd42 cb3d
00000190: 28a2 b6bd 898c 2cbe b232 f7bd 50dc 313e
000001a0: b95b 2f3b 122b 473e 6f1d 863d af17 8e3d
000001b0: 6eb5 69bd 26fd 68bd 8164 31bd a220 6cbe
000001c0: d5f2 d03d ccbb e3bd 2394 b2bd e2f6 a1bd
000001d0: f0ee efbc bc07 43be bcec 84bd f395 a33d
000001e0: 3ee6 0a3c ae82 8c3d 3480 edbd 88ff fabd
000001f0: 16b5 7839 4a6e 5ebc 95b7 44be c7ff 18be
00000200: 327b 063e 90f4 adbd dc86 4a3d 9223 623c
00000210: 90ad dd3d f258 7cbd 9ce8 f03d 2171 1cbd
00000220: cf54 983d 4e3b 043e 3153 38bc 939e a6bd
00000230: 44ca 4cbd b1d8 e1bd 657c 4d3d d586 07be
00000240: 5337 fc3d 1070 cdbc 5d74 eb3d d9c7 06bd
00000250: 27f2 03be 9991 223d ecb3 af3d bcb0 e6bd
00000260: 204f 41bd ac3c b9bd 7be1 b3bd fe50 61bd
00000270: bf38 8bbc 67b9 1ebd 4c0b 0abe 38b3 b13d
00000280: 414a e23d decf 223d b6c4 b4bc f3f8 33bd
00000290: 6943 d3bd 0d64 2bbe 7be1 8a3d 9031 06bd
000002a0: 66c9 fabd 7d5f 183c b615 35bd 91b1 0b3d
000002b0: d84e a23c 73bb e6bc b06f 4dbd 1d88 e5bd
000002c0: b906 2dbd e476 ec3d d539 94bd 7fdf aa3c
000002d0: aaa8 69bd 4471 43bc ab98 9a3d 26e8 5f3d
000002e0: 6bc3 e6bd 22a1 023d 269f dd3d d48b 033d
000002f0: 130c b53d 41d5 fd3d 777e 9ebd 06a7 fcbc
00000300: c073 bfbd c60a c6bc 4c96 853d 0e0f a03d
00000310: d1dd cdbd 4f3c ffbd 6374 dfbd 7caa eabd
00000320: 66a8 c6bd 94b2 6fb7 673b c73d 0891 0b3d
00000330: e135 8cbd 6079 a0bd 1179 573d 2a52 b2bd
00000340: 5abe 01bd 94f0 0d3d c22d cdbc f4be 5c3c
00000350: 8041 123c e03a 5bbd ba0e 84bd c831 09be
00000360: 60cb ddbd 0ab7 24bd 3986 213e edb3 83bd
00000370: d5d9 90bd 3364 0dbc 92d9 503c 85eb 8e3d
00000380: 86a4 823d e745 8e3c 32b8 c9bd f37d 42bc
00000390: a023 b63d deea 543b 9fa3 c2bd e14b ed3d
000003a0: f0e0 8abd 0f5b bebd 7783 12be 2b0d cdbc
000003b0: d90a 863d cf61 1abc dc8f 54bc 88da 93bd
000003c0: 4627 0fbe fba8 a13c ac2f 153e 81f9 963d
000003d0: d8a4 8abd d75e 0eba 9ea1 aabd 31f0 ccbd
000003e0: 752d 393d c689 933d 5a3b de3d 6c81 c9bd
000003f0: 04fd af3d 0488 7dbd ff9c 803d ec71 d43d
0.11303615 -0.05242891 0.10715396 0.012683659 -0.088412516 0.09406314 0.0005504803 -0.020639151
-0.07091917 -0.14128917 0.044887364 -0.05505192 0.03466686 -0.10297273 0.10322146 -0.08925266
-0.00048205617 -0.031867765 0.057125736 0.09455258 0.11213218 -0.09136221 0.063063525 -0.047858503
-0.019289281 -0.107928425 0.04629935 -0.070335865 0.059446372 0.07651364 0.094290175 -0.05925635
0.1310516 0.07801066 0.010321228 -0.09280736 0.068503805 -0.051106445 -0.056818943 0.115022175
0.059640955 -0.046717558 -0.03279475 0.03529494 0.03913508 -0.010676266 -0.06654436 -0.09090862
-0.047809295 0.038469058 0.06189589 -0.12518454 0.06325858 0.08759098 -0.0014865117 -0.014103361
0.062334735 0.04445745 0.05188624 -0.009717135 -0.05286804 -0.0026305842 -0.058089405 -0.034711894
0.20646317 0.13181747 -0.012759621 -0.066875435 0.054598194 0.019848196 0.10296227 0.043921016
-0.003921776 -0.017342709 0.032355826 -0.041053705 -0.08024924 -0.116781704 -0.09796015 -0.18703352
0.056902714 -0.10199822 0.07085688 0.033800174 -0.148062 -0.093842566 0.028229281 0.1658068
0.02450925 -0.07594044 -0.13625173 -0.04881121 -0.103433475 0.1587778 -0.06110914 -0.06578123
-0.06865104 0.22217289 0.11199182 0.099248864 -0.089176476 -0.16850485 -0.12070216 0.17369199
0.0026757552 0.19450024 0.06548583 0.06938111 -0.05705779 -0.056882046 -0.04330874 -0.23059323
0.102025665 -0.11119804 -0.08719661 -0.07908417 -0.029288739 -0.19045919 -0.06490466 0.07987585
0.008477746 0.06860863 -0.115967184 -0.1225577 0.00023718583 -0.0135761 -0.19210656 -0.14941321
0.13132933 -0.08493912 0.04944502 0.013802426 0.1082412 -0.061608262 0.11763117 -0.038193826
0.07438051 0.12913248 -0.011250303 -0.081357144 -0.049997583 -0.11027659 0.05016746 -0.13235028
0.1231524 -0.02507785 0.11496804 -0.032905433 -0.12885343 0.039689634 0.08579239 -0.11264178
-0.0471946 -0.09044775 -0.08783241 -0.05500888 -0.016994832 -0.038751032 -0.13480872 0.086767614
0.11049319 0.03974902 -0.022066455 -0.04393859 -0.10315592 -0.16737385 0.06781288 -0.03276211
-0.12245445 0.00930011 -0.04421016 0.034104887 0.019812986 -0.028165555 -0.05015534 -0.11207602
-0.04224274 0.11546114 -0.07237593 0.020858524 -0.057045616 -0.01192886 0.0754865 0.054664753
-0.11267742 0.03189195 0.10821371 0.032115772 0.088401936 0.123941906 -0.07738965 -0.030841362
-0.093482494 -0.024175059 0.065228075 0.078153715 -0.10052074 -0.12462675 -0.10910871 -0.114582986
-0.09700088 -1.4287089e-05 0.09728127 0.03407386 -0.06846214 -0.078356504 0.052605692 -0.08707078
-0.031675674 0.03465326 -0.025046233 0.013473261 0.008926749 -0.053522944 -0.06448121 -0.13397896
-0.10829806 -0.040213622 0.15773858 -0.064308025 -0.07072798 -0.008629846 0.012747185 0.069785155
0.063790366 0.017367316 -0.098495856 -0.011870849 0.08893514 0.0032488625 -0.095038645 0.115867384
-0.06781185 -0.09294712 -0.14307962 -0.025030693 0.06545038 -0.009422733 -0.012973752 -0.07219416
-0.13979825 0.019733896 0.14568967 0.07371808 -0.06769723 -0.00054310024 -0.08331607 -0.100067504
0.045209367 0.072040126 0.10851164 -0.098391384 0.08593181 -0.061897293 0.06279945 0.103732914

rnn.bias_ih_l0 f4 [64]
00000000: 527d 9abd ac19 52bd 97e3 673d 3204 c9ba
00000010: fb11 89bb 545a babd e22c 073e c405 9bbd
00000020: c034 8e3d 3f77 d13c e9eb 6b3c ea0a af3d
00000030: 1158 59bd 5506 87bd 1a4a ae3a 9acc 58be
00000040: 0776 963d f881 2bbd 556a 9e3d 8817 263d
00000050: 8e78 e03a 3316 8bbd 348e 143e b573 b0bc
00000060: 09ab 003e a6b6 85bd 02f7 d63d bb0d 103d
00000070: fd4e e2bd 2a2a 463d 6028 14bd 9d52 aebd
00000080: a8f4 c73d 9f49 b23d 6182 3fbd e612 103e
00000090: cc71 aabc 6a17 b8bd 7adc 1bbe b98e fa3d
000000a0: f10e dfbd 155c cf3d e298 05be 213b 9f3c
000000b0: 87e5 cebd be48 953d ab36 033e 9321 093d
000000c0: e1a8 dabb 0573 edbd c3e5 8abd 6ed7 edbd
000000d0: b263 c83d 67b9 c5bd b922 f83c 3ad5 e13d
000000e0: d63d 903d 6689 e9bd f2f6 08bc 7bb1 a4bd
000000f0: a7b2 d03d 1eff 093c 8c2c d6bc 9c66 b33d
-0.07543434 -0.051294014 0.05661353 -0.0015336333 -0.0041830516 -0.0909926 0.13200715 -0.07569459
0.06943655 0.025569556 0.014399507 0.085470036 -0.053062502 -0.065930046 0.001329723 -0.211718
0.07346731 -0.041871995 0.07735125 0.040549785 0.0017125772 -0.067913435 0.14507371 -0.021539548
0.12565245 -0.06528978 0.10496332 0.035169344 -0.11050222 0.048380055 -0.036171317 -0.08511851
0.09763461 0.08705448 -0.0467552 0.14069709 -0.020806216 -0.08988841 -0.15220824 0.122342534
-0.10891522 0.10124985 -0.13046601 0.019437375 -0.101023726 0.07289265 0.12813823 0.033479284
-0.006672964 -0.11594204 -0.06782105 -0.116133556 0.0978464 -0.09654503 0.030289995 0.11026998
0.07043044 -0.1140316 -0.008359658 -0.08041664 0.10190325 0.008422641 -0.026144288 0.087598056

rnn.bias_hh_l0 f4 [64]
00000000: 916b 1f3d a9a2 d73d a97b 97bd 8a4f 883d
00000010: f375 663c 1c3e 9b3b 2625 3e3d e74c bbbd
00000020: f731 963c c78d c83d 2f91 dabd c746 2dbd
00000030: 8ad3 6f3d c398 e5bc 5c13 d2bd 4e4e d3bd
00000040: 97b7 1cbd 1101 c03d fc91 da3d 7989 b5bd
00000050: 7616 3e3d e1a7 63bd 7bfb 283c ff6e 593d
00000060: cead adbc 67eb 2b3d d544 fdbd f297 1abd
00000070: d0c4 20be 8e3e ee3d e030 903c 4151 eebd
00000080: 5323 9f3d 6efe 593b 96aa aa3d 49a0 bc3d
00000090: 3061 d0bd b67d b33d 9100 dabd e927 203c
000000a0: e837 abbc e400 163e c9e6 ea3c 0904 d8bd
000000b0: e278 5fbd d36d 143e f3d0 8ebc 7655 9bbd
000000c0: 7eb3 81bd b69b 8abd 4192 9dbd c4aa 4dbc
000000d0: 1ed6 e83c d23c b83d 2e0e 833d 9ddc 403c
000000e0: 3e02 be3d 5a6e 893d afd8 d0bd bcda a13c
000000f0: 075e 83bd 62f3 ee3d f862 97bd 4234 193b
0.038920943 0.10529072 -0.07396633 0.06655796 0.014066207 0.0047376286 0.046422146 -0.09145527
0.018334372 0.09792667 -0.10672223 -0.042303827 0.05855135 -0.028026944 -0.10257599 -0.1031767
-0.038261022 0.093752034 0.106723756 -0.088641115 0.04640814 -0.055580024 0.010313864 0.05308437
-0.02120104 0.041972544 -0.12366644 -0.037742563 -0.15700078 0.11633025 0.01760143 -0.11636592
0.077704094 0.0033263224 0.08333318 0.092102595 -0.10174787 0.08764212 -0.10644639 0.00977514
-0.020900682 0.14648777 0.0286745 -0.10547645 -0.054558642 0.1449502 -0.01743362 -0.0758466
-0.063330635 -0.06767981 -0.07693911 -0.012552921 0.028422412 0.089959756 0.06399189 0.011771348
0.092777714 0.06710501 -0.10197579 0.019757621 -0.06414419 0.11667515 -0.07391924 0.0023377095

fc.weight f4 [1, 64]
00000000: 764d 423e 18ec 963d 2faf 513d 8d1a b9bd
00000010: 3696 4c3e 5abb 773e fb98 89be 3bb5 e3bd
00000020: 4efb 77bc 067c 7dbe f33e 29bd 87bc 20be
00000030: 5cf4 46be c0b9 07be 74d4 693e 807b 07be
00000040: 266e 36be d421 06be 0b91 8fbe 2be4 43be
00000050: e2f2 93be 7ce7 413e 1d69 50be eacb 463e
00000060: d192 483e 5b2c 6abe 5709 3dbe b3a1 43be
00000070: 0c40 653e be8c 4b3d 78ec 52bb a40d b93e
00000080: 06fd 433e ea3a c9bc 3776 34be d1c5 01bd
00000090: f0c6 773c 15c5 933c 2339 5f3e 4285 b1be
000000a0: f46a 693e 86ac b6be f497 5a3e 6645 0f3e
000000b0: 5d1c f63d e72d 8f3e 9f33 60bc e295 d53c
000000c0: 5d2e 39bd c1ad 4dbd 198e d3bc 9569 7c3e
000000d0: c082 13be 6269 c3bd bc39 b2bc 02e0 483e
000000e0: f1d4 2dbe e85f 653e 1275 97bd 059e e4bd
000000f0: fa67 1d3e 9496 8dbe a971 b33d b354 78be
0.18974862 0.0736925 0.05119246 -0.09038267 0.19979176 0.24192563 -0.26874527 -0.11118551
-0.015135599 -0.24754342 -0.0413198 -0.15696917 -0.19429153 -0.13254452 0.2283495 -0.13230705
-0.17815456 -0.13098842 -0.28040347 -0.19130008 -0.28896242 0.1893596 -0.20352598 0.19413725
0.19587256 -0.22868483 -0.18460594 -0.19104652 0.22387713 0.04969477 -0.0032184403 0.3614322
0.1913949 -0.024564225 -0.1762322 -0.031682793 0.015123114 0.018038312 0.2179914 -0.3467198
0.22794706 -0.356785 0.21347028 0.13991317 0.120171286 0.27964708 -0.013684182 0.026072446
-0.04521023 -0.050214533 -0.025824593 0.24649651 -0.14405346 -0.095415846 -0.021756046 0.19616702
-0.16975762 0.22399867 -0.07395376 -0.11162952 0.15371695 -0.27653944 0.08761913 -0.2425106
